DQNet/backup/local_qnet.params (torch_old, 54016 bytes, 3 tensors)

fc1.weight f4 [512, 24]
000000 80 fe 10 3d aa 00 13 3e 8e 20 34 3e 40 14 94 3c
       0.03539896 0.14355722 0.17590544 0.018076062
000010 08 93 49 3d 58 61 03 3e 80 bb 42 3c 3d c3 40 be
       0.049212486 0.12830102 0.011885524 -0.18824477
000020 58 20 e2 bc 7f 9a 50 be 60 e9 d4 3b b0 93 52 bd
       -0.027603313 -0.20371436 0.006497547 -0.051410377
000030 f8 89 ba 3d d8 e9 f3 3c 0c 6e e3 3d f1 01 4c be
       0.09108347 0.029774591 0.11104974 -0.19922616
000040 80 bc d9 ba 0f 20 37 be 90 48 eb 3d fe d8 24 3e
       -0.0016611964 -0.17883323 0.114884496 0.16098401
000050 78 4c ee bd 9c f5 ad 3d ad 7b ac bd 00 f5 38 3a
       -0.11635679 0.08494112 -0.08422027 0.0007055551
000060 de 08 49 3e cc b9 a2 3d 02 ba 8a bd 20 51 f3 bd
       0.19632289 0.07945594 -0.067737594 -0.11880708
000070 10 c3 e3 3d 10 6d 18 3e 54 56 7c bd 3a 01 16 be
       0.111211896 0.14885354 -0.061605766 -0.14648905
000080 dc c8 ba bd d2 a3 1d 3e f7 4e 2f be 84 91 22 3d
       -0.09120342 0.15394524 -0.17119966 0.039689556
000090 fd 53 33 be dd 3f 29 be 24 45 e6 bd 2f 72 4c be
       -0.17512508 -0.16528268 -0.11243656 -0.19965433
0000a0 13 9c cf bd 78 21 86 bd 69 01 ab bd 4c 08 b9 bd
       -0.10137191 -0.065493524 -0.08349878 -0.09034786
0000b0 fc 47 3e 3e 0e 36 80 bd 30 c6 2f be 80 b2 ab 3c
       0.18582147 -0.0626031 -0.17165446 0.020959139
0000c0 06 a7 ce bd ac 09 ca 3d f4 e8 12 3e 28 28 ab 3c
       -0.10090451 0.09865126 0.14346677 0.020893171
0000d0 8c 5b 02 3e e6 90 0f 3e 90 4b b1 3d b8 9a 85 3d
       0.12730235 0.14020118 0.086569905 0.06523651
0000e0 d5 60 4b be 50 d8 76 3d f6 ed 20 3e cf d3 42 be
       -0.19861157 0.060264885 0.15715775 -0.19026111
0000f0 ee 54 bb bd 10 21 0d be d6 b1 32 be dc e4 08 3e
       -0.091470584 -0.13782144 -0.17450652 0.13368553
000100 a8 c1 86 3d 40 f4 91 bd 4a 73 86 bd 2b 59 d9 bd
       0.06579906 -0.07126665 -0.065649584 -0.106127106
000110 86 8f 17 be 40 84 95 bc b0 22 d5 3c 68 4c d9 3d
       -0.14800844 -0.018251538 0.026017517 0.106102765
000120 38 8a ba bd e8 b5 74 bd d7 e0 f3 bd b0 71 c6 3d
       -0.091083944 -0.05974379 -0.11908119 0.09689653
000130 2e 7a 03 3e 80 22 20 3e cc fd 80 3d 12 7b bc bd
       0.12839577 0.1563816 0.06298408 -0.09203161
000140 0c ac 01 3d 68 ea d6 3c 80 b9 a0 bc e6 6b be bd
       0.031658217 0.02623482 -0.019619703 -0.09297924
000150 94 47 3c 3e f0 74 f3 3d 8e 07 f1 bd 52 0f 25 3e
       0.1838668 0.118875384 -0.11769019 0.16119125
000160 14 46 a5 3d b4 8e 46 3e 38 17 b1 3c 66 d6 2f 3e
       0.08070007 0.19390374 0.021617517 0.1717163
000170 7c be 04 3d a0 e8 e8 bb 58 ec 27 be 4c f8 dc 3d
       0.032408223 -0.007107809 -0.16398752 0.10789546
000180 98 5d 2a be 26 b5 0c 3e 20 f1 3f 3d e0 c2 42 bc
       -0.16637266 0.13740978 0.046860814 -0.011887282
000190 c1 36 bc bd 48 97 51 bd 62 35 94 bd a3 2b 1b be
       -0.09190131 -0.051169664 -0.072367445 -0.15153365
0001a0 2e cb 96 bd f8 71 d2 3c 78 33 c5 3d 7e 01 02 be
       -0.07362972 0.02568911 0.096289575 -0.12695882
0001b0 e0 69 c4 3d 7c 68 15 3e b0 5e 9c bd 9d da 23 be
       0.095905066 0.14590639 -0.07635248 -0.16001363
0001c0 aa 5c 49 be aa 4c 44 3e 50 8d 00 3c 00 6a d7 ba
       -0.19664255 0.1916987 0.0078461915 -0.0016434789
0001d0 ce 8f 40 be 78 96 25 3e 36 af 4b 3e 73 ab 43 be
       -0.18804857 0.1617068 0.19891056 -0.19108371
0001e0 b7 cf 32 be fe 5d 19 be 18 dd 34 bd 1e 8f 12 be
       -0.1746205 -0.14977261 -0.044156164 -0.14312407
0001f0 84 3e 22 3e 2a d1 3f be 2a a1 41 be e4 82 f8 3d
       0.1584416 -0.18732134 -0.18909135 0.121343404
000200 88 07 b3 3d b4 e3 34 bd 60 87 5a bc c4 2e f3 bd
       0.08741671 -0.044162467 -0.01333794 -0.11874154
000210 c4 ef b3 3d 00 6b 31 bd af 1e da bd e0 e6 2b be
       0.08785966 -0.043314934 -0.10650384 -0.1678729
000220 9e 99 04 be 3c a1 11 3d 38 16 c5 bc 50 c5 05 3c
       -0.12949225 0.035554156 -0.024058446 0.008164719
000230 42 4d 0b 3e e0 0e 3f bd f8 55 bc 3d 40 ac 22 bb
       0.1360369 -0.046645045 0.09196085 -0.0024821907
000240 50 c1 1b 3d b3 a0 a8 bd c4 a5 9b 3d f4 61 8d 3d
       0.038026154 -0.08233776 0.07599977 0.06903449
000250 d8 46 0b bd 82 ca 0e be 72 99 49 3e 00 50 06 ba
       -0.03400311 -0.13944438 0.19687441 -0.0005123615
000260 d9 99 f6 bd b8 12 87 3d 0e 92 82 bd 60 3d 4c 3d
       -0.12041063 0.06595367 -0.06375514 0.04986322
000270 a6 9e 05 3e 13 09 ac bd 4c c8 20 be 38 e4 29 be
       0.13048801 -0.08400168 -0.15701407 -0.16590965
000280 40 26 08 bb 9b 3f 3a be a8 3d dd 3c 70 af cc 3c
       -0.0020774752 -0.18188326 0.027006939 0.024985999
000290 54 5b 36 be ac d5 6e bd 6d 2d e6 bd 90 b7 39 3e
       -0.17808276 -0.058309242 -0.11239133 0.1813643
0002a0 50 ed 22 3c f0 05 28 bd 82 70 4c 3e 98 d3 39 3d
       0.009944275 -0.041021287 0.19964793 0.045367807
0002b0 00 44 1e ba f7 13 3b be a0 be e6 3c 48 8f 20 be
       -0.00060373545 -0.18269335 0.028167069 -0.15679657
0002c0 4d e4 e9 bd c4 b5 0b bd 8a 03 4e 3e 25 94 f6 bd
       -0.11420498 -0.034108892 0.20118538 -0.12039975
0002d0 f0 01 50 3d 4a dd 23 be e4 09 d3 3d 38 55 4a bd
       0.050783098 -0.16002384 0.10304621 -0.049397677
0002e0 e0 67 94 3d f0 3c 06 3e 0c 45 ef 3d 50 8d 76 bc
       0.07246375 0.13109183 0.116830915 -0.01504834
0002f0 26 8c 3a be d4 c8 a6 3d fa 09 46 be 17 eb 11 be
       -0.18217525 0.08143774 -0.19339743 -0.14249836
000300 9a 14 3b 3e 54 52 9b 3d 70 46 22 3c a0 67 8c bd
       0.18269578 0.07584062 0.009904489 -0.068557024
000310 98 cb 29 bd dc 3f 36 bd 4c a4 03 be a4 43 1b 3e
       -0.041453928 -0.044494495 -0.12855643 0.15162522
000320 00 db f3 3d 3a 70 90 bd f8 f5 3a 3e b0 ed b8 3c
       0.11907005 -0.070526555 0.18257892 0.022574276
000330 48 a8 27 3e d2 66 03 3e d4 f2 39 3e 85 f8 19 be
       0.16372788 0.12832192 0.18159038 -0.15036209
000340 fc 4d 58 bd 74 73 09 bd 30 4b 58 3d 54 ad a6 3d
       -0.052808747 -0.03355737 0.05280608 0.081385285
000350 44 bd 2a 3e 7e a5 9b bd 09 aa 49 be 82 46 8f bd
       0.16673762 -0.075999245 -0.1969377 -0.0699587
000360 c5 6a df bd dc 62 ac 3d cd 2c 26 be 2c da 11 be
       -0.109090365 0.084172934 -0.16228028 -0.14243382
000370 5c ff 07 3d d8 17 18 3e 82 44 4f 3e 18 60 07 3e
       0.033202514 0.14852846 0.20240977 0.1322025
000380 fc 1f 1d 3e 1c 04 02 3e ea ef e3 bd 38 66 23 3d
       0.15344232 0.1269688 -0.11129744 0.039892405
000390 b4 4d 47 3e 59 a9 4d be 18 c3 cc 3d 96 6d 22 3e
       0.19463235 -0.20084132 0.09998149 0.15862116
0003a0 5b 2d 36 be c0 27 8d 3d 1b b7 f4 bd 8c fc b0 bd
       -0.17790739 0.06892347 -0.11948987 -0.086419195
0003b0 60 32 1f be 66 d5 2b be e8 89 d6 bc da 6b 41 3e
       -0.1554656 -0.16780624 -0.026188806 0.18888798
0003c0 a0 af 16 3e 8b 88 af bd 7e 64 2d be 67 24 e7 bd
       0.14715433 -0.085709654 -0.16932866 -0.1128624
0003d0 56 14 10 3e a6 eb 01 be 7c a6 bb 3d 50 7a 03 3d
       0.14070258 -0.12687549 0.09162614 0.03209907
0003e0 5e 69 0a 3e 83 67 f8 bd 66 0b 00 3e ec d7 47 3e
       0.13516757 -0.12129118 0.12504348 0.19515961
0003f0 28 4a 29 3d 7e 83 42 be 45 09 44 be 40 4f a6 3c
       0.041330487 -0.18995473 -0.19144161 0.020301461

fc1.bias f4 [512]
000000 02 79 b2 bd 00 d8 76 bb a0 57 05 3d 8e e8 3f be
       -0.08714487 -0.0037665367 0.03255427 -0.18741056
000010 38 ad e1 bc 5f da 18 be 50 92 7a 3d a0 3e 88 3d
       -0.027548417 -0.14927052 0.06117469 0.0665257
000020 9e 0b 2c 3e ac ed 06 be f8 a8 01 be 00 fc 58 b9
       0.16801307 -0.13176602 -0.12662113 -0.00020693243
000030 b0 e7 a6 bd 29 14 15 be 84 e3 b9 3d 38 d0 dc 3d
       -0.0814966 -0.14558472 0.09076598 0.10781902
000040 f4 24 fd bd 50 fc 43 be 3a 3a 24 3e f0 b1 2f bc
       -0.12360564 -0.19139218 0.16037837 -0.010723576
000050 22 75 9b bd 50 91 86 bc 3c d5 12 bd 8e f9 1a 3e
       -0.07590701 -0.016426712 -0.035847887 0.1513426
000060 30 3e 68 3d c0 16 52 3b dc 55 bd 3d c8 89 b7 3d
       0.05669993 0.0032057017 0.09244892 0.089618266
000070 2c fa 9b 3d b2 54 2e 3e 88 2b 17 3e c2 db 4a 3e
       0.07616076 0.17024496 0.147627 0.19810393
000080 b4 bc 21 3e 30 76 cf 3d 74 ef 26 bd 60 3a b9 3d
       0.15794641 0.10129964 -0.040755704 0.09044337
000090 e6 42 4c 3e e0 7d 25 3e 8c 8c f1 3d 32 63 09 be
       0.19947395 0.16161299 0.11794385 -0.13416746
0000a0 2a a3 cb bd 32 c4 01 be 2c d8 25 3e f6 e4 a5 bd
       -0.099432305 -0.12672499 0.16195744 -0.081003115
0000b0 20 4c ba 3b 43 39 43 be d0 6a 99 bc 7c 00 88 3d
       0.0056853443 -0.19064812 -0.01872769 0.066407174
0000c0 c0 7b f3 3b 00 f2 1f 3e 60 c0 11 3e 1c ea db 3d
       0.0074305236 0.1561966 0.14233541 0.10738012
0000d0 00 9b cc ba 64 0d 1b bd 68 16 82 bd 69 2c 2b be
       -0.0015610158 -0.037854567 -0.0635193 -0.1671616
0000e0 2a 0a fc bd a0 a7 bb 3b 18 15 ae 3d 0a bb 49 be
       -0.12306626 0.0057267696 0.08500117 -0.19700256
0000f0 54 57 68 bd 52 70 18 3e 00 ed 42 bd 90 8e 40 3d
       -0.056723908 0.14886597 -0.047589302 0.04701096
000100 de 44 1b be 0c 31 e2 bd d3 c6 3f be 70 72 f1 3c
       -0.1516299 -0.11044511 -0.18728189 0.029473513
000110 20 a0 e2 bb e2 8a 0c 3e e0 aa 6e 3c 87 48 10 be
       -0.006916061 0.13724855 0.014567107 -0.14090167
000120 8c 82 0c 3d d0 1f 4b bc 0c 96 66 bd 0e 55 47 be
       0.034304187 -0.012397721 -0.05629544 -0.1946604
000130 d4 d7 43 bd 30 82 d8 bc 50 d4 95 3d b4 2a c3 bd
       -0.04781325 -0.026429266 0.07315886 -0.09529629
000140 70 92 a8 bc 76 bd 42 3e 81 71 3a be 46 61 11 be
       -0.02057764 0.19017586 -0.18207361 -0.14197263
000150 3e 5b 35 be 11 67 a5 bd 98 63 aa bc 08 88 61 3d
       -0.17710587 -0.08076299 -0.020799443 0.05506137
000160 60 d7 ea 3d 43 70 19 be b4 c6 0b bd 50 8b 8f bc
       0.11466861 -0.1498423 -0.034125045 -0.017522484
000170 78 f5 a6 3c 94 11 2f 3e 78 1c 75 3d a6 08 81 bd
       0.02038072 0.1709655 0.059841603 -0.06300478
000180 ce 41 11 3e 00 c1 5b 3a 86 03 95 bd fc af c3 bd
       0.14185259 0.0008382946 -0.07276063 -0.09555051
000190 9c 84 8a 3d 00 db 12 bc c4 b0 4b be a0 0e 53 3c
       0.067635745 -0.0089633465 -0.1989165 0.012881905
0001a0 00 d8 c3 3b 60 dc de 3d 98 43 20 3e 18 0f 03 3d
       0.005976677 0.10881877 0.15650785 0.031996816
0001b0 00 81 19 be c0 b4 2e bc 34 0e d3 3d 82 53 87 bd
       -0.14990616 -0.010663211 0.103054434 -0.06607725
0001c0 50 fb b3 3c 54 75 0a be a4 b6 02 be 1d 8a 37 be
       0.021970421 -0.1352132 -0.12764984 -0.1792378
0001d0 c8 7f ae 3d c8 f5 d0 3c 0b d2 27 be 44 9d e1 3d
       0.08520466 0.025507823 -0.16388719 0.11016324
0001e0 0a 4f 3e 3e a0 b0 65 3c 14 b1 2d 3e 4a 39 33 3e
       0.18584839 0.014019161 0.16962081 0.17502323
0001f0 53 ca 50 be b8 cc cd 3d 56 8a f5 bd a2 85 0d be
       -0.2038968 0.10048813 -0.11989276 -0.13820508
000200 aa 52 4a 3e b0 2a e1 3d 00 14 47 3e ee 27 0a 3e
       0.19758096 0.1099447 0.19441223 0.13491794
000210 f0 50 64 bc e6 15 3c 3e 18 32 4f be 38 2d 82 3c
       -0.013935313 0.18367729 -0.20233953 0.015890703
000220 60 06 09 3d d4 ec 5b bd f0 f0 f6 3c c0 0a a3 3d
       0.033453345 -0.053692654 0.030144185 0.07961035
000230 cb 81 46 be 30 12 2e 3e e0 d0 d5 bc 62 64 3a 3e
       -0.1938545 0.16999125 -0.026100576 0.18202356
000240 f2 62 1c 3e cc d7 d8 3d ae 03 26 be 40 2d da bb
       0.1527212 0.10588035 -0.16212341 -0.0066582263
000250 14 5e b9 3d 5a f1 11 be 35 5a 23 be 38 71 f9 3d
       0.09051147 -0.14252225 -0.1595238 0.12179798
000260 30 73 6d 3d 98 60 8f bc 26 bd 22 3e ee 38 09 3e
       0.05797118 -0.017502114 0.15892467 0.13400623
000270 2b 2d c2 bd e2 01 02 3e 19 5e fc bd 64 9a f0 3d
       -0.09481271 0.1269603 -0.12322635 0.11748198
000280 b4 39 0a 3e 38 95 8e 3d 20 ba 18 3d 00 25 12 3b
       0.13498574 0.06962055 0.037286878 0.0022299886
000290 6c 27 9f 3d 90 e1 4b 3d c0 5e 67 3d 92 cf 32 be
       0.07771191 0.04977566 0.056486845 -0.17461994
0002a0 90 01 23 3d 8e 95 97 bd 9c 5e 13 be 0c d5 86 bd
       0.039796412 -0.07401572 -0.1439156 -0.06583604
0002b0 d5 69 f0 bd 5a 17 39 be af 3b 2c be 50 65 4a bd
       -0.11738936 -0.18075314 -0.16819642 -0.049413025
0002c0 60 41 20 bc f0 f1 8b bc 46 f3 00 3e 75 c8 d4 bd
       -0.009781212 -0.017083138 0.12592801 -0.10389797
0002d0 50 a1 b6 3c 50 b8 ac 3c 40 71 17 3d 74 63 cc 3d
       0.022293717 0.02108398 0.036973238 0.09979907
0002e0 de 23 3c be 74 dc 96 bd 60 e3 ff bc 95 d9 07 be
       -0.18373057 -0.07366267 -0.03123635 -0.13266595
0002f0 de 7d 2c 3e a8 9a 07 be 28 b0 ee 3d d0 05 fc bc
       0.1684489 -0.1324259 0.11654693 -0.03076449
000300 7c 94 4c be 2c 69 fa 3d 90 fd 76 3d 70 b4 e0 3c
       -0.19978517 0.12227091 0.06030041 0.02742979
000310 98 a8 1e be c0 e4 50 bb ef e1 30 be f0 c4 4f bc
       -0.15494001 -0.0031874627 -0.17273687 -0.012681231
000320 62 5a 1d 3e 9c 96 ee 3d 84 3b 80 bd 00 a7 db 3c
       0.1536651 0.1164982 -0.06261352 0.02681303
000330 06 8e 3f 3e 74 a0 42 3e f2 28 18 3e d6 f0 8c bd
       0.18706521 0.1900652 0.1485937 -0.06881873
000340 05 fc 4f be a0 9f 45 3e ac 75 6e bd 84 ea a0 bd
       -0.20310982 0.19299173 -0.05821769 -0.0785723
000350 00 bf 91 bc 43 93 2b be d8 35 bd bc 42 2f 02 3e
       -0.017791271 -0.16755395 -0.023096964 0.1271334
000360 8d 99 ee bd de 24 92 bd fc c6 1d be d8 07 a3 3d
       -0.11650381 -0.07135938 -0.15407938 0.079604805
000370 b0 b5 b4 bc 28 f7 8d 3d ea 23 21 be 14 79 45 bd
       -0.022059292 0.06931907 -0.15736356 -0.048211172
000380 a0 55 3b bd d0 a2 c5 bd fc d0 9b 3d f0 53 42 bd
       -0.045735955 -0.09650195 0.0760822 -0.04744333
000390 e2 2a 2a be 22 77 49 3e 2c 08 45 bd 6e b5 10 3e
       -0.16617921 0.19674352 -0.048103496 0.1413171
0003a0 6f 9c 15 be 90 a8 a4 3c 80 f1 d9 ba cc af f6 3d
       -0.14610456 0.020099908 -0.0016627759 0.12045249
0003b0 ac e0 df 3d 74 b6 a8 3d e4 1e 82 3d 06 f3 29 3e
       0.10931525 0.08237925 0.06353548 0.16596612
0003c0 90 ae 53 3d 8a 6a 04 3e 64 61 f2 3d 53 54 01 be
       0.051680148 0.12931266 0.11834982 -0.12629823
0003d0 b1 e5 c8 bd ff cb 09 be c8 32 06 3e 90 32 ae 3d
       -0.09809435 -0.13456725 0.13105309 0.08505738
0003e0 a2 05 23 3e 10 99 9a 3d 00 60 70 b8 70 43 8f 3d
       0.15920117 0.075487256 -5.7309866e-05 0.069952846
0003f0 d2 ad 33 be e4 8f 3f bd 78 24 c2 3d e8 35 2d 3e
       -0.17546776 -0.046768084 0.09479612 0.16915095

fc2.weight f4 [1, 512]
000000 a6 f5 99 3c 82 70 34 bd c8 77 4b bc 60 b3 74 bb
       0.018793892 -0.04405261 -0.012418695 -0.003733836
000010 30 4e 09 3b 14 6a 85 3c 75 aa 2f 3d f8 85 b1 3b
       0.0020951144 0.016285934 0.04288717 0.0054175816
000020 62 92 0f bd 2d 1a 2b bd dc 98 c3 bc b0 cd 7e 3b
       -0.03505171 -0.04177301 -0.0238766 0.0038879924
000030 e8 be 9f bb 2a 27 09 bd b4 a5 15 bc a9 27 21 3d
       -0.0048750527 -0.033484615 -0.009133745 0.039344463
000040 6c 6c 11 bc 0d c0 00 3d fa b8 d1 3c 90 46 82 bb
       -0.008875947 0.031433154 0.025600899 -0.003975697
000050 5e d6 5f bc b8 63 a9 3b c2 3f f5 bc ec 1b bd bc
       -0.013661949 0.005169358 -0.029937629 -0.023084603
000060 fd 14 0d 3d 8a 16 9b 3c a0 a9 ae 3b d0 78 7b 3c
       0.034443844 0.018931646 0.0053302795 0.015348628
000070 be 62 d2 bc f2 2f 98 3c a9 da 08 3d fe 5c a9 3c
       -0.02568185 0.01857755 0.033411656 0.020674225
000080 e8 b8 85 3b eb fe b8 bc 66 c3 a4 3c 5c b4 04 bd
       0.0040808804 -0.022582492 0.020112704 -0.032398567
000090 00 58 3c b9 f8 47 f5 bb f0 fc 3e bc 41 0b 2a 3d
       -0.0001796186 -0.007485386 -0.011656985 0.04151464
0000a0 18 5c 54 bc 4a b3 96 3c e0 d9 9a 3a 9f c7 2b bd
       -0.01296141 0.018396039 0.0011814199 -0.04193842
0000b0 e8 ea a9 bb 17 04 2f bd d2 6d ab 3c 08 0f 96 bb
       -0.0051854737 -0.04272851 0.02092639 -0.0045794286
0000c0 52 67 8e 3c 13 86 30 3d 35 77 2c 3d 90 86 fe 3b
       0.017383251 0.043096613 0.042105872 0.007767506
0000d0 c6 57 b6 bc 5d f2 28 bd c4 70 23 bc 52 7c bc 3c
       -0.02225865 -0.04124676 -0.009975616 0.0230085
0000e0 a7 e5 22 3d f9 13 94 bc 86 f3 e3 3c 4e 3b c2 3c
       0.039769795 -0.01807593 0.027826082 0.02370992
0000f0 d5 cd 1b 3d 30 1e 31 bd 88 0a c1 3b d0 a9 27 bb
       0.038038094 -0.04324168 0.005891148 -0.0025583394
000100 40 7a a6 3a 00 28 72 b9 ed ce 15 3d d0 7f 6b bc
       0.0012701228 -0.0002309382 0.036574293 -0.014373735
000110 c8 31 4b bc 20 36 a7 3a be ce d0 3c ad 6b 10 3d
       -0.0124020055 0.0012757219 0.025489207 0.035258938
000120 6a 24 b5 bc 50 33 1d bb 94 91 9d bc 11 59 0e bd
       -0.02211209 -0.0023986883 -0.019234456 -0.03475291
000130 f9 b6 01 3d dc 92 ef bc e0 d4 bb 3a c2 cb 83 3c
       0.031668637 -0.029244833 0.001433041 0.01608837
000140 1e c7 f9 3c a8 a9 04 bc c4 a2 3d bc 88 1a b6 3b
       0.030490454 -0.00809709 -0.011574451 0.005557362
000150 8b 79 31 3d 40 43 23 bb 02 8a 85 3c e4 5b e1 bc
       0.043328803 -0.002491191 0.016301159 -0.027509637
000160 23 e0 8a bc 20 34 3d 3b ed 43 33 bd 39 5c 25 3d
       -0.01695258 0.002887018 -0.04376595 0.040371154
000170 96 68 ba 3c 78 ef a4 bb f0 c5 0f 3b 30 b5 9c bb
       0.022754949 -0.0050334297 0.0021938048 -0.0047823414
000180 d8 b5 c6 3b a0 8a b1 bc d0 70 6e 3b 05 0b 11 3d
       0.006064158 -0.021672547 0.003638316 0.0354109
000190 48 40 94 3b 6e b3 c3 3c 6b 5c 23 3d 10 fb ea bc
       0.0045242645 0.02388927 0.03988306 -0.028684169
0001a0 ef 5e 1e 3d 02 4d b8 3c cc ab 40 3c 82 20 96 3c
       0.038664754 0.022497658 0.01175971 0.018326048
0001b0 b6 8f 97 3c d7 9c 11 3d 8d 52 d7 bc 14 47 2b 3c
       0.018501144 0.035549965 -0.02628448 0.010453958
0001c0 1d bb 20 bd 04 aa 18 bd 96 99 a5 3c d2 40 c9 3c
       -0.039240945 -0.037271515 0.020214837 0.024567042
0001d0 ca be c1 3c 00 54 94 ba 3c 25 12 3c 48 6a d2 3b
       0.023650546 -0.0011316538 0.00892001 0.006421361
0001e0 f0 dd 9a bb ce 7f df 3c b7 4f 8d bc fa f9 ca 3c
       -0.004726164 0.027282622 -0.017249925 0.024777401
0001f0 9d 50 22 3d 57 b5 10 3d b0 07 08 3b 80 ff ce bc
       0.03962766 0.03532919 0.0020756535 -0.025268316
000200 2a aa 86 3c 4d 9e 17 bd f4 9a 13 3c 91 46 12 3d
       0.016438562 -0.0370162 0.009009112 0.03571183
000210 da 7f 98 bc 04 d5 14 bc 60 60 6f bb aa 2c d5 3c
       -0.018615652 -0.00908399 -0.003652595 0.026022274
000220 f8 c3 8a 3b c0 72 ce bc 12 3b f7 bc c1 f6 0c 3d
       0.004234787 -0.025201201 -0.030179534 0.03441501
000230 8a 1b b8 bc 70 b5 a6 3b 6f d8 04 3d 80 d3 ed b9
       -0.02247407 0.005087547 0.03243297 -0.00045361742
000240 fe b5 d2 3c 05 f0 18 3d f0 a7 c8 3b 3a 4c 1c bd
       0.025721546 0.037338275 0.0061235353 -0.038158633
000250 21 03 31 bd 66 26 e3 3c 58 e6 f8 bc 58 d2 e5 bb
       -0.043215875 0.02772827 -0.030383274 -0.0070136003
000260 50 07 7a 3b e3 02 29 bd 1e 5f fc 3c 47 c9 0a 3d
       0.0038151331 -0.04126252 0.030807074 0.03388336
000270 db e3 29 3d df 3c 1b 3d ef 3b 08 3d b6 34 c3 3c
       0.041477066 0.037899848 0.033260282 0.023828845
000280 c8 d0 2a bc 80 e6 75 3a 7f 0b 1e bd 68 0d 8a 3c
       -0.010425754 0.00093803555 -0.038585182 0.016852096
000290 14 33 12 bc 8f 02 9f bc f8 f2 73 3c ee d9 2d bd
       -0.008923311 -0.0194104 0.014889471 -0.042444162
0002a0 6c 7a 74 3c f8 66 dc bb e4 c8 6e bc 02 c4 d6 3c
       0.014921766 -0.006726142 -0.014574263 0.02621651
0002b0 80 4a 16 3b 8c 27 c9 bc 25 65 cd bc 90 4c 6f bb
       0.002293259 -0.02455499 -0.025072644 -0.003651414
0002c0 42 bf d8 3c 78 59 dd bc f6 5e e2 3c 5c b3 19 3c
       0.026458386 -0.027020201 0.027633172 0.0093811415
0002d0 1d 5e 19 3d 88 4a aa bb b0 f7 74 bb 78 24 86 bb
       0.03744327 -0.005196873 -0.0037379079 -0.004093703
0002e0 b0 e7 5b bc d1 bb eb bc c1 f2 e0 bc 80 8a e1 ba
       -0.013421938 -0.028776081 -0.027459504 -0.0017207414
0002f0 50 0f 21 3b 12 eb d7 3c f4 39 09 bc aa 50 7b bc
       0.0024575777 0.026357207 -0.0083756335 -0.015339056
000300 9e 9e b2 bc 88 11 5d 3c 2c 39 2f bc 1e 0a 8b 3c
       -0.02180415 0.013492949 -0.010694783 0.016972598
000310 26 5e 96 3c d6 86 a4 3c 58 d9 05 bd cf 7e 25 bd
       0.01835544 0.020083826 -0.03267798 -0.040404137
000320 d0 71 54 bb 38 f6 19 3c 04 4f 0a bd 2c 37 e4 bc
       -0.003241647 0.009397082 -0.03376676 -0.02785834
000330 ac 99 12 bd a0 5c 3f 3b 05 68 d9 bc b1 f1 1f bd
       -0.035791084 0.0029199496 -0.026538858 -0.039048854
000340 be 71 f7 bc ec 4e 46 bc c6 1e 60 bc 80 3f e1 3a
       -0.030205604 -0.012103777 -0.013679212 0.0017185062
000350 60 db 38 3b 16 95 f7 3c c9 8c 19 3d 43 9e 33 3d
       0.002820693 0.030222457 0.03748778 0.043852102
000360 50 ab b8 bc bf fd 0d bd d6 62 79 bc d5 b7 05 3d
       -0.022542626 -0.03466582 -0.015221318 0.03264602
000370 0c d5 9a bc 3e 93 0e bd 60 17 92 3c 8c 02 eb bc
       -0.018900417 -0.03480839 0.017833412 -0.028687738
000380 e9 35 22 bd e2 1e 9b 3c 90 ff 61 3c 64 2f 61 3c
       -0.039602194 0.018935625 0.013793841 0.013744209
000390 73 60 de bc 0f 24 08 3d 7e e4 ff 3c 6c ae 44 3c
       -0.0271456 0.033237513 0.031236883 0.012004476
0003a0 ea c3 6c bc 6c fe 4f bc 32 53 9a 3c 74 64 25 bc
       -0.014451006 -0.012694936 0.018838499 -0.010094751
0003b0 b7 59 33 bd 3c f8 0b 3c 92 0e c1 3c 30 e0 01 bd
       -0.04378673 0.00854307 0.023566518 -0.031707942
0003c0 ed 10 1b 3d 09 85 31 bd f2 97 1d bd 66 3f f0 3c
       0.03785794 -0.043339763 -0.038474984 0.029327106
0003d0 b0 2c 28 bc 8c 2e 54 bc 30 0d 5f 3b 28 64 a8 bb
       -0.010264561 -0.012950551 0.003403496 -0.0051388927
0003e0 80 b9 90 39 06 f7 b1 3c 07 8b 27 3d 90 48 29 3c
       0.0002760403 0.021724235 0.04090407 0.010332242
0003f0 de 97 e5 3c 40 3c af ba 18 07 fa 3b 80 27 c4 3a
       0.028026517 -0.0013369396 0.00763024 0.0014965385
